app/src/main/ml/model.tflite (tflite, 563332 bytes, 8 tensors)

y_pred/bias f4 [3]
0.006302055 0.0013488723 -0.013259009
00000000: 7881 ce3b a5cc b03a 513c 59bc

dense_2/bias f4 [256]
-0.0022385407 -0.0007745834 0.0033137875 -0.0072330674 -0.017997408 -0.009883538 0.0021641403 -0.012676987
0.0074367193 -0.0037299267 -0.008320869 0.0039024781 0.0059385984 -0.005680474 -0.0072107 -0.015430471
-0.0037464139 0.007419801 -0.011242087 0.013034285 -0.016377674 -0.011124286 -0.014928439 -0.013707447
-0.016218336 0.0106603755 -0.017404087 -0.006362275 0.0036226928 -0.005861979 0.0012729994 -0.00028800327
-0.01133116 -0.016208638 -0.007177817 0.008883133 -0.017516935 0.010017415 0.007286242 -0.009515372
-0.0026466092 0.015942711 0.0080431 -0.018916782 -0.009295979 -0.00017518125 -0.018076627 -0.02326325
-0.009080372 0.005135382 -0.0024487574 -0.0061763027 -0.0014737706 -0.012900904 -0.007774744 -0.00094710366
0.0035323962 -0.009096098 0.011458766 -0.008249611 -0.015945343 -0.009206267 -0.027661333 -0.015076322
-0.00827911 -0.00787817 0.00579063 -0.0041595716 0.0038686597 -0.01382886 -0.009110753 -0.013378638
-0.016196406 -0.00827622 0.005564512 -0.005795632 -0.007114975 -0.0022990536 -0.00813715 -0.0021959748
0.0 -0.0007896966 -0.0059117405 -0.014496007 0.01180717 -0.0021552593 -0.0055006915 -0.012503721
-0.01708598 -0.012792569 0.002509282 -0.009722409 -0.0026263976 -0.004370147 -0.0035119597 -0.0022864398
-0.0021938304 -0.0378264 -0.013034595 -0.006030564 -0.0107814185 -0.047429007 0.009130789 -0.011358326
0.0038565055 -0.0041995114 -0.0023190784 0.0029780034 -0.01655793 -0.01157403 0.00243711 -0.004951649
-0.021442445 0.0039794585 -0.016123263 -0.0016404458 -0.025659073 -0.018420743 -0.005465575 -0.006423647
-0.013106503 -0.011952995 0.018741203 -0.013277521 0.000393974 -0.009755758 -0.011777347 -0.0032610432
-0.009243079 -0.011780129 -0.0005206764 -0.007526697 0.031953696 -0.0054845414 -0.01135369 -0.018779915
0.00038584066 -0.018373128 -0.022383198 -0.0020745583 -0.0017119289 -0.01150743 0.0009371723 0.0059593734
-0.009030285 -0.000977163 -0.0011837269 -0.0077708326 -0.014286793 -0.023464026 -0.008854469 -0.007753815
-0.015564534 -0.009127377 -0.014607216 -0.027371882 -0.0130904475 0.0002057701 -0.0035574627 -0.0057435115
0.0058665713 -0.008299569 0.0020370362 -0.007210326 -0.01447367 -0.016895812 -0.003273472 -0.007662819
-0.008359689 0.007738101 -0.017821219 -0.017223097 -0.010797889 0.022933273 0.0067964485 -0.012797246
-0.004584598 0.0034283334 0.010087656 -0.013950361 -0.017775703 -0.015817555 -0.0077877045 0.0027606185
0.0030478928 -0.0093130395 -0.013429274 -0.009553455 -0.014284991 -0.006046667 -0.028805187 0.019098528
-0.022026839 -0.006397483 -0.006727158 -0.008337489 -0.0047106626 -0.0022983267 -0.014495386 0.0016443568
-0.012717647 0.004066985 -0.023258636 -0.022334121 -0.011648631 -0.0046209497 -0.015034266 -0.023033364
-0.013198639 -0.009975604 -0.027221205 -0.0046286713 0.011559341 -0.014300455 -0.002502395 -0.013079799
-0.00824038 -0.016276449 -0.009998651 0.005225324 0.00735194 -0.004421264 -0.010400312 -0.013667021
-0.022824936 -0.0030063456 -0.020950545 -0.024344767 -0.0019579397 -0.015310377 -0.023831295 -0.004651178
-0.020287558 -0.0114571 -0.0136267 -0.0002684488 -0.013491919 -0.009954246 -0.008638874 0.007975843
-0.01156315 -0.026105266 -0.017076552 -0.013510226 -0.023775687 -0.008816896 0.0028904392 -0.010340487
0.004708614 -0.0024075208 -0.02294288 -0.015162418 -0.01827203 -0.0012492238 0.0073030232 -0.020717409
00000000: 7bb4 12bb 690d 4bba 212c 593b 5e03 edbb
00000010: 4d6f 93bc 90ee 21bc 40d4 0d3b 23b3 4fbc
00000020: b9af f33b c971 74bb 4154 08bc b8c0 7f3b
00000030: 9398 c23b 4523 babb bc47 ecbb 16d0 7cbc
00000040: 6586 75bb cd21 f33b bb30 38bc c18d 553c
00000050: 792a 86bc a342 36bc 6996 74bc 3395 60bc
00000060: 51dc 84bc dba8 2e3c 0493 8ebc a27a d0bb
00000070: b36a 6d3b d815 c0bb c6da a63a 25ff 96b9
00000080: 54a6 39bc fac7 84bc e533 ebbb 8f8a 113c
00000090: ad7f 8fbc 1520 243c 6ec1 ee3b 5de6 1bbc
000000a0: bc72 2dbb 4a9a 823c 35c7 033c 5ef7 9abc
000000b0: 294e 18bc dcb0 37b9 6f15 94bc 9292 bebc
000000c0: d7c5 14bc b546 a83b 557b 20bb 9562 cabb
000000d0: 892b c1ba 505e 53bc 48c3 febb 0d47 78ba
000000e0: c67f 673b cd07 15bc 8cbd 3b3c 6029 07bc
000000f0: cf9f 82bc e2d5 16bc 059a e2bc ad02 77bc
00000100: 1ba5 07bc 7113 01bc 53bf bd3b 044d 88bb
00000110: 5789 7d3b 7192 62bc 4545 15bc 1332 5bbc
00000120: 53ae 84bc fc98 07bc 8356 b63b 49e9 bdbb
00000130: bc24 e9bb b8ab 16bb ae51 05bc 58ea 0fbb
00000140: 0000 0000 a403 4fba 46b7 c1bb a980 6dbc
00000150: dc72 413c 403f 0dbb 253f b4bb 68dc 4cbc
00000160: e6f7 8bbc ec97 51bc c472 243b bd4a 1fbc
00000170: a41f 2cbb 7333 8fbb e828 66bb 18d8 15bb
00000180: 5ec6 0fbb dbef 1abd 0e8f 55bc 0a9c c5bb
00000190: 8ca4 30bc eb44 42bd 4e99 153c 4618 3abc
000001a0: 6dbd 7c3b 0e9c 89bb aefb 17bb 9b2a 433b
000001b0: 7fa4 87bc 00a1 3dbc ecb7 1f3b 7141 a2bb
000001c0: 11a8 afbc 1e66 823b ef14 84bc 3a04 d7ba
000001d0: fa32 d2bc 19e7 96bc 9118 b3bb 757d d2bb
000001e0: a8bc 56bc 7fd6 43bc 2787 993c f689 59bc
000001f0: 4c8e ce39 9dd6 1fbc c6f5 40bc 3ab7 55bb
00000200: 4970 17bc 7101 41bc 007e 08ba 83a2 f6bb
00000210: e1e1 023d abb7 b3bb d404 3abc 56d8 99bc
00000220: a84a ca39 3e83 96bc f85c b7bc 50f5 07bb
00000230: cd62 e0ba a989 3cbc 92ac 753a d946 c33b
00000240: c3f3 13bc 2614 80ba 4927 9bba 78a2 febb
00000250: 2713 6abc a137 c0bc 5612 11bc b713 febb
00000260: 6302 7fbc fe8a 15bc 1b53 6fbc ff3a e0bc
00000270: 5179 56bc fec3 5739 5224 69bb 1134 bcbb
00000280: 5e3c c03b eafa 07bc cc7f 053b 9944 ecbb
00000290: f922 6dbc 1669 8abc bf87 56bb 6318 fbbb
000002a0: 14f7 08bc e58f fd3b cefd 91bc 7417 8dbc
000002b0: a1e9 30bc 8fde bb3c beb4 de3b 8aab 51bc
000002c0: 653a 96bb e4ad 603b b246 253c 0e90 64bc
000002d0: 5a9e 91bc d193 81bc 0030 ffbb 7eeb 343b
000002e0: 28bf 473b b895 18bc 7506 5cbc 1886 1cbc
000002f0: 980b 6abc 1f23 c6bb dbf8 ebbc 8474 9c3c
00000300: a171 b4bc faa1 d1bb 7e6f dcbb f799 08bc
00000310: e75b 9abb 869f 16bb 0e7e 6dbc 7587 d73a
00000320: ad5d 50bc 5844 853b e588 bebc 0cf6 b6bc
00000330: e6d9 3ebc 566b 97bb 4852 76bc 77b0 bcbc
00000340: 1b3f 58bc b770 23bc 01ff debc 1cac 97bb
00000350: 6463 3d3c 754c 6abc 39ff 23bb a74c 56bc
00000360: a902 07bc 3056 85bc 62d1 23bc 3239 ab3b
00000370: 8be8 f03b 40e0 90bb 1266 2abc a4eb 5fbc
00000380: 5cfb babc 1c06 45bb 7aa0 abbc ad6e c7bc
00000390: c750 00bb 60d8 7abc d939 c3bc e968 98bb
000003a0: 1832 a6bc 8fb6 3bbc 8642 5fbc 97be 8cb9
000003b0: 360d 5dbc 2217 23bc 108a 0dbc 1cad 023c
000003c0: 5e73 3dbc b6da d5bc 20e4 8bbc ff59 5dbc
000003d0: 3bc5 c2bc be74 10bc 866d 3d3b 256b 29bc
000003e0: b84a 9a3b 7fc7 1dbb b5f2 bbbc ca6b 78bc
000003f0: 39af 95bc ffbc a3ba 334e ef3b 8eb7 a9bc

dense_1/bias f4 [256]
-0.008064426 -0.011868857 0.009301741 -0.0020603368 0.0019862233 -0.020163111 -0.0072695273 -0.004891888
-0.0064718667 -0.0031910273 -0.006495597 0.0029504586 0.0012003129 0.021491839 0.0015259037 -0.008804363
0.0005010353 8.102915e-05 -0.004031804 -0.007600565 -0.010250423 -0.011090478 -0.002497032 0.0062955855
0.004244009 -0.0047569796 -0.0040535177 -0.0028327247 -0.0068674926 0.0017288844 -0.017593883 -0.006575288
-0.010445217 -0.0063464395 -0.0013253395 -0.0080204625 -0.007298339 0.0052967737 -0.008257492 -0.013194571
-0.006921665 -0.00013268183 -0.0051505733 -0.007657718 -0.008984141 0.0 -0.011444353 0.0022532123
-0.0014902711 -0.0034427515 0.0031003505 0.00640622 -0.014931335 -0.00802377 -0.005753097 -0.015622581
-0.016181406 -0.016788706 -0.011249974 0.00063308206 -0.0036870176 -0.021353086 -0.014771981 -0.009639758
-0.00916828 -0.012032977 0.0048658866 -0.005839223 -0.009840905 -0.013820044 -0.0108486395 -0.008532627
-0.0067807683 0.0012134648 -0.0019222709 -0.005810804 -0.0014351235 0.0065874895 -0.011960965 -0.0072958143
-0.00849954 -0.0014758485 -0.0017583733 -0.0055067893 -0.008174422 -0.005511339 -0.0034722132 0.0008880232
-0.002073614 -0.0061101727 0.0008213733 -0.00592379 -0.010524901 -0.0104834465 -0.0037360878 -0.005347017
-0.012745773 -0.0028678137 -0.0064776377 -0.009398866 -0.005521381 -0.007868416 -0.008064851 -0.0071524885
0.0021808841 -0.009141752 0.010134038 0.00040010136 0.0052290424 0.0061024525 -0.011490019 -0.012196447
-0.008119447 -0.0083976975 0.01971955 -0.0040442124 -0.0056967516 0.0006290142 -0.014401821 -0.007036885
-0.008010108 -0.008891944 -0.015334611 -0.011429698 -0.0050480575 -0.015027133 -0.0008522081 -0.0031427264
-0.002420159 -0.011831761 0.0014541431 -0.0063290265 -0.0086169075 -0.0019036828 -0.0039558406 0.0016627974
-0.018407643 0.0037258207 -0.007992787 -0.011604459 -0.002815676 -0.0017361046 -0.0060848165 -0.0019687044
-0.013344484 -0.010092919 0.0018463351 -0.005755907 0.0034129734 0.0076242834 -0.006285936 -0.010494872
0.0014598166 -0.0022070683 -0.016277032 -0.009366058 0.01460797 -0.015712567 -0.008202095 -0.01426043
-0.008886257 -0.01160224 -0.022719115 0.0035953633 -0.009448006 -0.00035310205 -0.00872012 -0.008375241
-0.009432964 0.013957803 -0.020442395 -0.018363569 -0.0025779048 0.0 0.005966501 -0.011054442
-0.016779477 -0.021748183 -0.012202455 -0.01436642 -0.0067071854 -0.0045113503 -0.005592943 -0.016203946
-0.011928536 -0.0073723607 -0.004284427 -0.007213709 -0.00066825864 -0.008274569 -0.00310198 -0.007917296
-0.0053071426 -0.0019912347 0.0069538653 0.0075533832 -0.005396162 0.014094012 -0.0050939666 -0.007935246
-0.0011457475 0.0016029686 -0.0061453246 -0.005066604 4.687855e-05 0.0069313897 0.0036070654 -0.021763485
0.00049867673 0.008972704 -0.011334712 -0.0056922124 -0.00041167892 -0.0038012993 0.00012241793 0.0
-0.007838807 -0.007842365 -0.0044003874 -0.0031529677 0.009318179 -0.0065772054 -0.017280156 -0.005025816
0.019195693 -0.007828259 -0.0054774215 0.0024589289 -0.013495418 0.0047429283 -0.01505089 0.010929981
0.007232594 -0.006991976 0.0019202727 0.000618428 -0.009051994 -0.007992175 -0.0031276203 0.0043312632
-0.0071828905 0.0028824427 -0.01780173 -0.0060544433 -0.00026243067 -0.0020703434 -0.004095089 0.00032315578
-0.014842245 -0.0059277895 0.0067479108 -0.0036337029 -0.014967113 -0.0067407596 0.0033328189 -0.0040653762
00000000: a720 04bc 9875 42bc 5466 183c b706 07bb
00000010: 4c2b 023b 1c2d a5bc 3735 eebb 214c a0bb
00000020: f411 d4bb 8e20 51bb 04d9 d4bb 7b5c 413b
00000030: d153 9d3a a70f b03c d500 c83a 2d40 10bc
00000040: e957 033a 32ee a938 391d 84bb 290e f9bb
00000050: 64f1 27bc d6b4 35bc 3fa5 23bb 334b ce3b
00000060: 5411 8b3b 70e0 9bbb 5fd3 84bb 3ca5 39bb
00000070: b408 e1bb bc9b e23a 0c21 90bc 8375 d7bb
00000080: 6a22 2bbc cbf5 cfbb 04b7 adba 4268 03bc
00000090: e826 efbb 8f90 ad3b 6f4a 07bc 0b2e 58bc
000000a0: 22cf e2bb 8220 0bb9 24c6 a8bb 98ed fabb
000000b0: 3832 13bc 0000 0000 1881 3bbc a1aa 133b
000000c0: 3355 c3ba c99f 61bb 402f 4b3b 45eb d13b
000000d0: 8fa2 74bc 2176 03bc 7a84 bcbb dbf5 7fbc
000000e0: de8e 84bc 7888 89bc d051 38bc 6bf5 253a
000000f0: e4a1 71bb abec aebc 2e06 72bc 13f0 1dbc
00000100: 8e36 16bc f725 45bc 0472 9f3b f456 bfbb
00000110: bf3b 21bc 776d 62bc 7ebe 31bc 6ecc 0bbc
00000120: 3531 debb 1f0d 9f3a b5f4 fbba 8f68 bebb
00000130: c11a bcba dedb d73b ecf7 43bc ba11 efbb
00000140: a841 0bbc 4271 c1ba 3879 e6ba 4c72 b4bb
00000150: 03ee 05bc 7698 b4bb 128e 63bb 3aca 683a
00000160: 78e5 07bb d837 c8bb 6e51 573a 5a1c c2bb
00000170: a270 2cbc c3c2 2bbc 27d9 74bb 0836 afbb
00000180: a6d3 50bc eef1 3bbb 5d42 d4bb b4fd 19bc
00000190: b3ec b4bb 87ea 00bc 7022 04bc 6c5f eabb
000001a0: 2aed 0e3b 49c7 15bc 3c09 263c b2c4 d139
000001b0: 6358 ab3b 15f7 c73b a240 3cbc 9bd3 47bc
000001c0: 6e07 05bc 7f96 09bc e58a a13c 5085 84bb
000001d0: d1ab babb 6ee4 243a 9ef5 6bbc ab95 e6bb
000001e0: d43c 03bc 84af 11bc 053e 7bbc a143 3bbc
000001f0: 2d6a a5bb 5d34 76bc b866 5fba 33f6 4dbb
00000200: 889b 1ebb 01da 41bc f298 be3a b963 cfbb
00000210: ee2d 0dbc ff84 f9ba ff9f 81bb 39f2 d93a
00000220: a0cb 96bc e62c 743b 2ef4 02bc a120 3ebc
00000230: 3487 38bb 018e e3ba 2463 c7bb 6105 01bb
00000240: d3a2 5abc c55c 25bc ba00 f23a 0c9c bcbb
00000250: 31ac 5f3b 20d5 f93b 41fa cdbb aff2 2bbc
00000260: 5157 bf3a 76a4 10bb 6957 85bc 1874 19bc
00000270: 4456 6f3c a4b7 80bc 1462 06bc 94a4 69bc
00000280: aa97 11bc 5217 3ebc 701d babc 30a0 6b3b
00000290: cfcb 1abc 8e20 b9b9 d6de 0ebc 4f38 09bc
000002a0: b88c 1abc 45af 643c cf76 a7bc 326f 96bc
000002b0: 11f2 28bb 0000 0000 a382 c33b b11d 35bc
000002c0: 1d75 89bc 3f29 b2bc ceec 47bc 2261 6bbc
000002d0: f3c7 dbbb f3d3 93bb 0245 b7bb 23be 84bc
000002e0: e86f 43bc d893 f1bb 6164 8cbb fa60 ecbb
000002f0: 142e 2fba 0f92 07bc 974a 4bbb 8cb7 01bc
00000300: 8ae7 adbb 607f 02bb 40dd e33b 5f82 f73b
00000310: 4ad2 b0bb 92ea 663c 4aeb a6bb d602 02bc
00000320: e82c 96ba b31a d23a b85e c9bb c105 a6bb
00000330: 769f 4438 b620 e33b 8464 6c3b 5649 b2bc
00000340: a1b9 023a 4002 133c 3ab5 39bc bd85 babb
00000350: 9cd6 d7b9 381f 79bb 505d 0039 0000 0000
00000360: 576e 00bc 437d 00bc 2031 90bb 05a2 4ebb
00000370: 47ab 183c 9985 d7bb 1d8f 8dbc 9aaf a4bb
00000380: 4940 9d3c 1942 00bc f17b b3bb fb25 213b
00000390: e31b 5dbc 916a 9b3b 0298 76bc aa13 333c
000003a0: 65ff ec3b f21c e5bb a9b1 fb3a 001e 223a
000003b0: d14e 14bc 9df1 02bc c3f8 4cbb 45ed 8d3b
000003c0: 745e ebbb 5de7 3c3b efd4 91bc 5a64 c6bb
000003d0: d996 89b9 99ae 07bb 1930 86bb 3c6d a939
000003e0: e32c 73bc e73d c2bb 941d dd3b 6b23 6ebb
000003f0: 9f38 75bc 97e1 dcbb 6c6b 5a3b d936 85bb

dense/bias f4 [256]
0.00018092344 0.00795216 -0.021899248 -0.00484395 0.0017031617 -0.007898863 0.0 -0.007090894
0.008485359 -0.012107443 -0.0074313725 -0.017203314 0.0042482777 -0.009610258 -0.005394676 0.007541279
0.0070812744 -0.008136994 -0.008107853 -0.00734431 -0.017200349 0.0017272145 0.010575629 0.007342985
-0.022712933 -0.0041376604 -0.0047468236 -0.01517661 -0.008975405 -0.0035819921 0.0027079172 0.0036049904
0.005672173 -0.0062327324 -0.014437765 0.005535554 -0.0063121496 0.0 0.023374466 0.0078118513
-0.014044679 0.0018631648 -0.00024352506 -0.010726786 0.0009860721 -0.0076647024 -0.011930592 -0.0107510695
-0.0035903442 0.0014607233 -0.0060012066 -0.01860904 -0.02091423 0.0028804264 -0.014700901 -0.023137745
-0.017425671 -0.009680498 -0.0027560352 -0.01590236 -0.018037869 -0.0015095985 0.019306434 0.0009132604
-0.0250585 -0.0034641018 -0.007666104 0.007772273 -0.0022537087 0.0020538832 0.0111780055 -0.0089448085
-0.0043488727 -0.015276445 -0.01857795 -0.01979096 0.0010042244 -0.005266721 0.0034202002 -0.019328171
-0.012411703 -0.0039878795 -0.008206933 -0.0018932999 0.002001621 -0.007615902 0.0018833195 -0.018651435
-0.012620375 0.004536472 -0.02403446 -0.0141953705 -0.016273813 0.017754752 -0.024317896 0.014410811
-0.0118877925 -0.0101863295 0.009100181 -0.017323274 -0.012652415 -0.0039793216 -0.020464255 -0.016328586
-0.022229675 -0.013666615 0.00043941077 -0.018748697 -0.01119597 -0.0070607453 0.004757982 -0.021923972
0.0031980423 0.0 -0.008400623 -0.008523276 -0.0076547544 -0.0101644965 -0.027788075 -0.016782764
0.006366723 0.005859092 -0.008421601 0.009697366 -0.011320779 -0.0022634044 -0.006494168 -0.02685704
0.0030731333 -0.006191538 -0.011914231 -0.015840204 -0.0026143056 -0.021710528 0.0011141915 -0.006538388
0.011622456 -0.0040034587 -0.011521511 -0.009617114 0.0 0.0076139797 0.0016619749 0.0085393395
-0.0054221367 -0.0073122 -0.010622488 0.0051381816 -0.020482557 0.007866296 -0.019902188 -0.017487898
-0.008466693 0.0043981164 -0.00095008285 -0.011068997 0.0019260588 -0.005841771 0.0017784875 -0.017829372
-0.010023001 -0.014638456 0.008458421 -0.00854162 -0.008310464 -0.006865595 -0.0026454618 -0.019627523
-0.007000465 -0.006779493 0.0017079024 0.0019883267 -0.033358358 -0.0026066804 0.0076122135 0.0035802498
-0.013954819 -0.0029449535 -0.008560134 -0.002356102 -0.0023479436 -0.009403952 -0.006431978 0.021934984
-0.020408183 0.00532851 -0.02035041 -0.024416901 -0.011465778 -0.011922601 -0.009398783 0.0028741637
0.0006407374 -0.014637569 -0.010427142 -0.010401984 -0.00013596186 -0.0036560684 -0.009408637 0.0024070814
-0.0020463995 -0.017240211 -0.0068401652 -0.022534683 0.04565608 -0.009387597 -0.012847896 -0.011093466
0.0013731447 -0.0040633725 -0.014512808 -0.00032973662 -0.011634148 -0.006432973 -0.0053555863 -0.0033267313
-0.016710823 0.0071842186 -0.006634526 -0.00082557794 0.010635746 0.009380609 -0.0042588054 -0.0017421064
-0.0024379962 0.008291514 0.0027452344 -0.009755838 0.008741751 0.0 -0.0026666997 -0.020553581
0.004305206 -0.028683906 0.015714575 -0.0069798855 -0.0014340918 -0.027082955 -0.015069024 -0.03447721
-0.009371702 -0.007175843 0.012496269 0.007353719 -0.010039137 -0.0043633212 -0.00527595 -0.0009916577
-0.008563575 -0.005658496 0.015662618 -0.005834241 -0.004970205 -0.027815236 -0.012303123 -0.013398584
00000000: 44b6 3d39 c749 023c 0d66 b3bc ffb9 9ebb
00000010: a03c df3a 3c6a 01bc 0000 0000 bb5a e8bb
00000020: 2d06 0b3c 4c5e 46bc df82 f3bb f7ed 8cbc
00000030: 2335 8b3b 5874 1dbc d2c5 b0bb d51c f73b
00000040: 090a e83b 0751 05bc cdd6 04bc 8aa8 f0bb
00000050: bfe7 8cbc b463 e23a 6745 2d3c 6c9d f03b
00000060: 7910 babc 3695 87bb 3e8b 9bbb 51a7 78bc
00000070: 940d 13bc dbbf 6abb 5077 313b b441 6c3b
00000080: a3dd b93b f33b ccbb 608c 6cbc 9863 b53b
00000090: 26d6 cebb 0000 0000 cf7b bf3c 8ffa ff3b
000000a0: a71b 66bc 7035 f43a c35a 7fb9 67bf 2fbc
000000b0: 173f 813a 2f28 fbbb 8878 43bc 4125 30bc
000000c0: fb4b 6bbb be75 bf3a c5a5 c4bb fc71 98bc
000000d0: 5254 abbc 89c5 3c3b 0cdc 70bc 5e8b bdbc
000000e0: 48c0 8ebc f49a 1ebc 999e 34bb ab45 82bc
000000f0: 27c4 93bc b8dd c5ba 8728 9e3c de67 6f3a
00000100: 7c47 cdbc fc05 63bb f133 fbbb 8dae fe3b
00000110: f5b2 13bb 719a 063b f423 373c 3f8d 12bc
00000120: fd80 8ebb 0e4a 7abc c930 98bc a720 a2bc
00000130: 2ea0 833a 7594 acbb 7025 603b 1d56 9ebc
00000140: 755a 4bbc c2ac 82bb 5f76 06bc 9a28 f8ba
00000150: a12d 033b d18e f9bb b7d9 f63a e5ca 98bc
00000160: b0c5 4ebc afa6 943b eae3 c4bc b393 68bc
00000170: a950 85bc 6a72 913c 5336 c7bc 521b 6c3c
00000180: 04c5 42bc 90e4 26bc ed18 153c 8ae9 8dbc
00000190: 134c 4fbc f864 82bb a7a4 a7bc 87c3 85bc
000001a0: 021b b6bc f0e9 5fbc b760 e639 de96 99bc
000001b0: 4d6f 37bc d35d e7bb d9e8 9b3b e799 b3bc
000001c0: 3f96 513b 0000 0000 c4a2 09bc 36a5 0bbc
000001d0: bcd4 fabb fd88 26bc d1a3 e3bc 027c 89bc
000001e0: f29f d03b a0fd bf3b c1fa 09bc b3e1 1e3c
000001f0: ca7a 39bc a055 14bb 08cd d4bb 4c03 dcbc
00000200: 9f66 493b 63e2 cabb e833 43bc 51c3 81bc
00000210: c554 2bbb 47da b1bc 100a 923a f93f d6bb
00000220: 1d6c 3e3c 722f 83bb b8c4 3cbc 1a91 1dbc
00000230: 0000 0000 b17e f93b a0d6 d93a 96e8 0b3c
00000240: 2eac b1bb 2e9b efbb f209 2ebc 315e a83b
00000250: 09cb a7bc a3e1 003c ea09 a3bc c842 8fbc
00000260: e2b7 0abc 131e 903b fb0e 79ba bd5a 35bc
00000270: cf73 fc3a 546c bfbb 231c e93a e70e 92bc
00000280: 8337 24bc 22d6 6fbc 3095 0a3c 27f2 0bbc
00000290: 9d28 08bc c9f8 e0bb 7c5f 2dbb e6c9 a0bc
000002a0: 2864 e5bb 8226 debb b2db df3a 964e 023b
000002b0: c6a2 08bd d7d4 2abb e06f f93b a0a2 6a3b
000002c0: c1a2 64bc 1f00 41bb ce3f 0cbc d568 1abb
000002d0: f5df 19bb 0913 1abc 58c3 d2bb ffb0 b33c
000002e0: 102f a7bc c89a ae3b e7b5 a6bc f405 c8bc
000002f0: f5da 3bbc 0357 43bc 5afd 19bc 775c 3c3b
00000300: 29f7 273a 6ad2 6fbc 9ad6 2abc 156d 2abc
00000310: fc90 0eb9 a69a 6fbb af26 1abc 20c0 1d3b
00000320: e31c 06bb 583b 8dbc 7723 e0bb a89a b8bc
00000330: df01 3b3d 70ce 19bc fb7f 52bc 5ec1 35bc
00000340: 17fb b33a 0a26 85bb 21c7 6dbc 80e0 acb9
00000350: 279d 3ebc b0cb d2bb ea7d afbb 4a05 5abb
00000360: 23e5 88bc 9869 eb3b 7066 d9bb 996b 58ba
00000370: 8d41 2e3c 20b1 193c 738d 8bbb 6457 e4ba
00000380: cac6 1fbb 21d9 073c 64e9 333b f3d6 1fbc
00000390: 9039 0f3c 0000 0000 ccc3 2ebb fc5f a8bc
000003a0: af12 8d3b 83fa eabc dabb 803c 86b7 e4bb
000003b0: 23f8 bbba 13dd ddbc 11e4 76bc fa37 0dbd
000003c0: c48b 19bc 5623 ebbb 27bd 4c3c 77f7 f03b
000003d0: 317b 24bc 31fa 8ebb e0e1 acbb 83fa 81ba
000003e0: 3d4e 0cbc e86a b9bb e44e 803c 292d bfbb
000003f0: 1add a2bb c7dc e3bc 0a93 49bc bc85 5bbc

sequential/dense/MatMul f4 [256, 30]
-0.10593606 -0.08139574 -0.018778484 -0.15274763 -0.12950003 -0.066519186 0.11144159 -0.042253315
0.06563398 0.022342617 0.1029226 0.03858257 0.056032564 -0.048051313 -0.12828173 -0.10234158
-0.028408952 -0.14378789 0.120332286 0.10691689 -0.008999344 -0.090445496 -0.034099586 0.08176356
-0.019091127 0.1244085 -0.03404632 0.037075642 -0.056323215 0.085623726 0.020159692 0.0645116
0.12924264 -0.010095762 0.019397393 -0.03241258 -0.11483943 0.13462706 0.041844282 -0.078172386
0.07329309 0.14767496 -0.124934316 0.10283152 0.14189494 -0.10252016 -0.13998213 -0.08176954
0.018549247 -0.09939683 -0.09198964 -0.041949205 -0.09286592 0.11500071 0.11258091 0.05943351
-0.017844468 -0.086226024 0.011923842 0.14590503 -0.019701837 0.09956421 -0.01774951 -0.11324816
0.0052956315 0.043386657 -0.10408528 -0.09533529 -0.018099083 0.059984118 -0.12478895 0.058022037
0.026136845 -0.0772546 0.10738855 0.023495756 0.049252678 -0.08612996 0.037029013 -0.05873025
0.06630286 -0.08037095 0.10995035 0.06109239 -0.015992207 -0.14915347 0.032948483 0.025805918
0.036992572 0.000761929 -0.15044509 -0.05151273 -0.05038664 0.105130956 0.010265929 -0.084461614
0.06706371 0.10193334 0.08679736 0.062508665 -0.15856227 -0.11367348 -0.09014544 -0.09663048
-0.006729724 0.054743208 0.038741995 0.1325939 0.09265557 -0.03768391 -0.034861397 0.07132614
0.09035526 0.022147708 0.08394815 -0.16823253 -0.03991182 0.04449519 0.10483815 -0.046771467
0.012693664 0.08267353 0.061039746 -0.09525164 -0.13608122 0.1418396 0.10054707 -0.066359974
-0.016359484 -0.096534856 -0.036152482 -0.032590117 -0.073744684 0.1011579 0.10768199 -0.03379258
-0.06510881 0.022844408 -0.025540039 -0.14497764 -0.041829523 0.06329579 -0.08224829 0.15867387
-0.09044135 -0.0678494 0.09166216 0.1031692 -0.15823448 -0.0861163 0.0662015 -0.08379854
-0.025291055 0.07471451 0.17939593 0.021332197 -0.13277738 -0.07411783 -0.051902305 0.01407049
-0.03824468 0.040173862 -0.07158694 -0.078710094 0.012239465 -0.092681624 -0.031769525 0.011869591
-0.109021254 0.111980066 0.07550487 0.13146178 -0.022016576 0.09507892 0.12138737 0.11429433
-0.04136005 -0.019986762 -0.10645816 0.09509762 -0.10708502 -0.031287543 -0.12019159 -0.104632735
-0.068522364 -0.059335276 -0.03590013 0.026955292 -0.14464422 -0.057377607 -0.03732758 -0.048531458
-0.0100566 -0.12918235 -0.056239337 -0.11277324 -0.0658085 -0.12588109 -0.06492718 0.06612821
0.07024455 0.08169784 -0.09086873 -0.1163296 -0.014758527 -0.11165935 -0.03456609 0.006839752
-0.122301854 -0.11372652 -0.03396008 0.1097177 0.13512093 0.001462629 0.024974275 -0.12539157
0.061191805 0.123487696 0.0434065 -0.0055762846 -0.025140116 0.12652603 -0.06545712 0.12377857
0.09437624 0.06069517 0.082406074 0.053452447 0.05794995 0.11744352 0.025679087 -0.08088267
-0.02720772 -0.06713642 -0.0673532 0.01719619 0.025869465 -0.01446804 0.13141574 -0.052663237
0.019063316 -0.029773273 -0.11976341 -0.12973934 -0.05041302 0.12992844 0.03334317 0.115106896
-0.12088494 0.12534128 0.089255214 0.12683158 0.122190274 -0.022858761 -0.108660005 -0.04465762
00000000: 01f5 d8bd cfb2 a6bd 56d5 99bc e069 1cbe
00000010: a89b 04be 363b 88bd 7d3b e43d d011 2dbd
00000020: 1c6b 863d dd07 b73c 16c9 d23d c208 1e3d
00000030: 6782 653d 74d1 44bd 495c 03be 7698 d1bd
00000040: e4b9 e8bc 223d 13be c670 f63d 3ef7 da3d
00000050: fc71 13bc 7d3b b9bd 02ac 0bbd a773 a73d
00000060: ff64 9cbc e2c9 fe3d 2774 0bbd a1dc 173d
00000070: 2cb3 66bd 7e5b af3d f025 a53c a81e 843d
00000080: 2f58 043e b268 25bc 48e7 9e3c 0ec3 04bd
00000090: ef30 ebbd addb 093e e964 2b3d d818 a0bd
000000a0: b01a 963d 1b38 173e 90dd ffbd 5599 d23d
000000b0: e84c 113e 17f6 d1bd 7a57 0fbe ca76 a7bd
000000c0: 97f4 973c 9190 cbbd 1065 bcbd eed2 2bbd
000000d0: 7d30 bebd 7e85 eb3d d290 e63d 8d70 733d
000000e0: 902e 92bc 4597 b0bd 385c 433c 2168 153e
000000f0: bf65 a1bc 52e8 cb3d 6c67 91bc a7ee e7bd
00000100: fa86 ad3b 35b6 313d aa2a d5bd 263f c3bd
00000110: 8744 94bc e8b1 753d 5991 ffbd 84a8 6d3d
00000120: f01c d63c a937 9ebd 87ee db3d 2c7a c03c
00000130: 2dbd 493d e864 b0bd bcab 173d 218f 70bd
00000140: cbc9 873d 8699 a4bd a62d e13d 043c 7a3d
00000150: 1702 83bc b0bb 18be fdf4 063d ef66 d33c
00000160: 8685 173d 31bc 473a 470e 1abe 03ff 52bd
00000170: 3962 4ebd e64e d73d 6d32 283c 36fa acbd
00000180: b358 893d 6dc2 d03d d0c2 b13d 8b04 803d
00000190: 265e 22be a4cd e8bd 2c9e b8bd 33e6 c5bd
000001a0: 0485 dcbb 6a3a 603d edaf 1e3d b2c6 073e
000001b0: 34c2 bd3d 725a 1abd d3ca 0ebd 7013 923d
000001c0: 2e0c b93d 1c6f b53c 02ed ab3d 2645 2cbe
000001d0: 947a 23bd 9740 363d 62b5 d63d 7093 3fbd
000001e0: 16f9 4f3c bd50 a93d d004 7a3d 4b13 c3bd
000001f0: e058 0bbe 663e 113e 9feb cd3d bde7 87bd
00000200: 5304 86bc 11b4 c5bd a014 14bd 377d 05bd
00000210: 7407 97bd e02b cf3d 6088 dc3d 176a 0abd
00000220: c557 85bd 3224 bb3c 5839 d1bc 0575 14be
00000230: 6f55 2bbd 39a1 813d cb71 a8bd 677b 223e
00000240: 5139 b9bd a0f4 8abd 5fb9 bb3d 604a d33d
00000250: 3808 22be be5d b0bd a794 873d 929e abbd
00000260: 302f cfbc ec03 993d 91b3 373e dcc0 ae3c
00000270: cbf6 07be 17cb 97bd 8397 54bd ea87 663c
00000280: 74a6 1cbd 598d 243d 2c9c 92bd c232 a1bd
00000290: 0988 483c ddcf bdbd c320 02bd ac78 423c
000002a0: 8946 dfbd ce55 e53d 4ca2 9a3d eb9d 063e
000002b0: 1b5c b4bc bdb8 c23d f199 f83d 2513 ea3d
000002c0: 2869 29bd 47bb a3bc bc06 dabd 8ac2 c23d
000002d0: 644f dbbd 5e27 00bd 0227 f6bd b049 d6bd
000002e0: 7455 8cbd 8c09 73bd 040c 13bd 58d1 dc3c
000002f0: 9d1d 14be c804 6bbd cee4 18bd ecc8 46bd
00000300: 70c4 24bc 6148 04be 385b 66bd a8f5 e6bd
00000310: 9bc6 86bd f9e6 00be 8bf8 84bd 3a6e 873d
00000320: 60dc 8f3d 3251 a73d 6219 babd 373e eebd
00000330: c0cd 71bc a8ad e4bd 2c95 0dbd 0020 e03b
00000340: 6579 fabd 73e9 e8bd ba19 0bbd acb3 e03d
00000350: 245d 0a3e afb5 bf3a da96 cc3c a666 00be
00000360: 42a4 7a3d 1ee7 fc3d 04cb 313d 44b9 b6bb
00000370: a5f2 cdbc 0a90 013e 620e 86bd 9e7f fd3d
00000380: 5548 c13d 809b 783d 84c4 a83d f4f0 5a3d
00000390: ed5c 6d3d 3a86 f03d f35c d23c d0a5 a5bd
000003a0: b9e2 debc d27e 89bd 79f0 89bd 06df 8c3c
000003b0: 33ec d33c 5c0b 6dbc d991 063e 68b5 57bd
000003c0: ac2a 9c3c 14e7 f3bc 8546 f5bd 64da 04be
000003d0: e27d 4ebd f60b 053e d992 083d 2abd eb3d
000003e0: 8692 f7bd 7759 003e 70cb b63d 23e0 013e
000003f0: e53e fa3d 4c42 bbbc 2389 debd e9ea 36bd

sequential/dense_1/MatMul f4 [256, 256]
-0.06612714 0.058677137 -0.003006075 0.0057272464 -0.10333727 0.037542023 0.064539306 -0.014889212
0.019139176 0.08822823 0.04317241 -0.108196 -0.0032313839 0.008063384 -0.02979692 0.0106341615
-0.050381746 -0.037945736 -0.0024094477 -0.11508762 0.030832857 -0.090092696 -0.04408934 0.069582045
-0.009899091 -0.008264345 0.03350178 -0.08700081 -0.016185358 -0.10125995 -0.028769428 0.06124801
-0.0285067 0.06201703 0.019805389 0.072402634 -0.08177609 -0.021598682 -0.09840874 0.012613231
0.0516623 0.09952192 0.0598985 0.04947099 -0.0388705 -0.023137502 0.08669522 0.086841606
-0.05757386 -0.018951885 0.035590887 -0.08646492 -0.11363045 0.0012008419 -0.056380257 0.026354691
0.111259945 -0.027499706 -0.07097783 -0.011646715 0.092310466 0.09975732 0.07708467 -0.080310345
0.042108808 -0.015846632 -0.034687854 -0.016555674 -0.10610037 -0.028385075 -0.024851672 -0.017919937
-0.003787652 0.04401494 0.03903238 0.052672174 -0.012948062 0.050163817 -0.098691374 -0.014781954
-0.0828209 0.09672097 0.048825365 0.034995366 -0.009152617 -0.045415107 0.016940674 0.05810489
0.06221465 -0.012722492 -0.08972502 -0.019645702 0.024903636 0.100229755 0.018921616 -0.07612211
0.09470867 0.060579427 -0.010563399 -0.06565291 0.058963772 0.045094945 0.014540699 -0.009997033
0.03193343 0.09547036 -0.06566198 -0.02922382 -0.009698435 -0.08189659 -0.0018505947 0.07259969
-0.0637579 -0.0554165 -0.050340325 -0.08691596 -0.11127753 -0.06493899 -0.08822569 -0.029304013
-0.09074598 0.021974279 -0.04355252 -0.10137066 0.064673014 0.07101877 0.09577394 -0.025510088
-0.07416661 -0.030773943 -0.054569196 -0.016290048 -0.008011213 -0.005914078 -0.09030315 0.023261078
0.039084114 0.0066630715 -0.085054874 -0.04853177 -0.027038902 0.036899228 -0.06346278 -0.025295496
-0.06165953 0.08615019 -0.067620136 0.05750759 -0.09874593 0.045806 0.009192038 -0.08594103
-0.08945862 -0.043078464 -0.048508763 0.024451118 -0.057918165 -0.06720019 0.03431151 0.031776752
0.033468496 0.026586283 0.035680003 0.07544003 -0.023607396 0.1004203 -0.11033644 -0.011597689
-0.08786725 0.013087816 -0.03025751 -0.060977656 -0.06172707 -0.10188727 -0.07379301 -0.10753055
0.012893124 -0.0316662 -0.09566896 0.08882717 0.039224535 0.08405409 -0.047116313 0.056894645
0.070850365 0.054172527 -0.07267073 0.09622939 0.049010586 0.013314516 0.040392987 -0.065508604
-0.102404304 0.038465787 0.030397747 -0.030671014 -0.07801973 -0.013801243 0.046253346 -0.009106338
-0.021577748 0.09873903 0.048965957 -0.07860063 0.07298786 -0.04015422 0.038078863 0.013889066
-0.018522777 0.05046406 0.08098655 -0.10393264 -0.008668392 -0.11575263 0.06331799 0.012458172
-0.014724163 0.05020774 -0.07906898 -0.08583038 -0.02464846 -0.079740785 0.02364002 -0.07219811
0.07432443 0.08411274 -0.07624032 0.043051712 -0.124300964 0.037270926 0.02470805 0.09111036
0.01748275 -0.03512884 -0.0012118071 0.029821254 0.09679043 -0.05259536 -0.0723022 0.070205845
-0.08431123 -0.09537768 -0.020766973 0.077401996 -0.0006527716 0.07725224 0.062515825 -0.023158722
-0.029001083 -0.032206353 0.10513427 -0.06839186 0.044491775 -0.025368804 0.09953631 0.027937327
00000000: aa6d 87bd 7057 703d 9201 45bb a0ab bb3b
00000010: 7ea2 d3bd aac5 193d 2f2d 843d e2f1 73bc
00000020: c3c9 9c3c 01b1 b43d 8ed5 303d dd95 ddbd
00000030: a0c5 53bb 491c 043c ac18 f4bc e83a 2e3c
00000040: 175d 4ebd fd6c 1bbd d3e7 1dbb 0fb3 ebbd
00000050: 3095 fc3c 8582 b8bd 0697 34bd 0881 8e3d
00000060: cc2f 22bc 2d67 07bc 2a39 093d 7b2d b2bd
00000070: 2897 84bc 6061 cfbd ddad ebbc 31df 7a3d
00000080: e286 e9bc 9205 7e3d e93e a23c d547 943d
00000090: 397a a7bd b8ef b0bc 858a c9bd baa7 4e3c
000000a0: d99b 533d 26d2 cb3d 2158 753d 18a2 4a3d
000000b0: ac36 1fbd dc8a bdbc 438d b13d 03da b13d
000000c0: 91d2 6bbd fc40 9bbc c0c7 113d 8514 b1bd
000000d0: 15b7 e8bd 9165 9d3a fcee 66bd cbe5 d73c
000000e0: 41dc e33d 1047 e1bc d35c 91bd ddd1 3ebc
000000f0: 450d bd3d 914d cc3d 91de 9d3d c079 a4bd
00000100: 497a 2c3d ccd0 81bc da14 0ebd c49f 87bc
00000110: 274b d9bd d187 e8bc bc95 cbbc d5cc 92bc
00000120: 413a 78bb 0249 343d 6be0 1f3d c7be 573d
00000130: 1c24 54bc 9378 4d3d b41e cabd 0230 72bc
00000140: 019e a9bd a515 c63d 1bfd 473d 4d57 0f3d
00000150: dcf4 15bc 3105 3abd 2bc7 8a3c 65ff 6d3d
00000160: cad4 7e3d 0072 50bc c0c1 b7bd 06f0 a0bc
00000170: b602 cc3c 4245 cd3d 8101 9b3c e9e5 9bbd
00000180: 9ff6 c13d 2222 783d 1b12 2dbc 0875 86bd
00000190: ff83 713d 7ab5 383d 1d3c 6e3c 98ca 23bc
000001a0: a1cc 023d f785 c33d ca79 86bd cb66 efbc
000001b0: 2fe6 1ebc 66b9 a7bd a78f f2ba 25af 943d
000001c0: 8093 82bd 69fc 62bd a831 4ebd ff00 b2bd
000001d0: 79e5 e3bd bcfe 84bd acaf b4bd f80e f0bc
000001e0: 07d9 b9bd 6703 b43c 2164 32bd 6c9b cfbd
000001f0: 4973 843d 4a72 913d 2125 c43d 88fa d0bc
00000200: aae4 97bd a319 fcbc f383 5fbd b572 85bc
00000210: 7641 03bc e2ca c1bb dcf0 b8bd 048e be3c
00000220: aa16 203d e555 da3b 4031 aebd 40c9 46bd
00000230: b080 ddbc a523 173d c6f8 81bd 8038 cfbc
00000240: b48e 7cbd 836f b03d 6d7c 8abd 148d 6b3d
00000250: 4e3b cabd 129f 3b3d 349a 163c da01 b0bd
00000260: 1536 b7bd 0b73 30bd 20b1 46bd b64d c83c
00000270: 993b 6dbd 41a0 89bd 3a8a 0c3d 5728 023d
00000280: 4316 093d 7acb d93c 3225 123d 4d80 9a3d
00000290: 4c64 c1bc 29a9 cd3d 12f8 e1bd 3c04 3ebc
000002a0: bff3 b3bd 476e 563c 99de f7bc b5c3 79bd
000002b0: 86d5 7cbd 46aa d0bd ca20 97bd fa38 dcbd
000002c0: ae3d 533c 6bb4 01bd 16ee c3bd 05eb b53d
000002d0: e8a9 203d 8d24 ac3d 09fd 40bd 5c0a 693d
000002e0: ff19 913d 03e4 5d3d 64d4 94bd ea13 c53d
000002f0: 53bf 483d 2125 5a3c 1e73 253d 6029 86bd
00000300: 59b9 d1bd 4d8e 1d3d b204 f93c c741 fbbc
00000310: cfc8 9fbd 9c1e 62bc 2674 3d3d c032 15bc
00000320: d1c3 b0bc b037 ca3d 8790 483d 5ef9 a0bd
00000330: a97a 953d c078 24bd 95f8 1b3d f78e 633c
00000340: 14bd 97bc 67b3 4e3d 47dc a53d a3da d4bd
00000350: df05 0ebc b70f edbd ddac 813d 5c1d 4c3c
00000360: 9e3d 71bc a2a6 4d3d ebee a1bd d7c7 afbd
00000370: 91eb c9bc 234f a3bd b7a8 c13c 9adc 93bd
00000380: 6837 983d 4d43 ac3d e323 9cbd fe56 303d
00000390: 8191 febd 66a9 183d 8968 ca3c 1298 ba3d
000003a0: fc37 8f3c 42e3 0fbd 80d5 9eba b44b f43c
000003b0: 103a c63d 3b6e 57bd 2d13 94bd 15c8 8f3d
000003c0: 5eab acbd 6055 c3bd 801f aabc f084 9e3d
000003d0: c31e 2bba 6c36 9e3d 4c08 803d 5cb7 bdbc
000003e0: ae93 edbc cfea 03bd a350 d73d 0811 8cbd
000003f0: 023d 363d 3dd2 cfbc b1d9 cb3d d2dc e43c

sequential/dense_2/MatMul f4 [256, 256]
-0.029558377 0.034331545 0.08386824 -0.0054961345 0.10115446 -0.06560269 -0.042555373 -0.08474337
0.01530054 -0.06135729 0.018089721 0.08647971 0.10320392 -0.14147584 0.0005329871 0.080672696
-0.091245614 0.10182881 0.08177768 0.043308567 -0.06824292 0.04151109 0.0028921529 -0.048053168
0.08332635 0.054654956 -0.06883647 -0.017074306 -0.058437984 -0.0077237445 0.037102178 -0.075259715
0.09713512 0.091227904 0.04980139 0.051730346 0.04456431 0.11052162 0.017481051 0.081819706
0.10034393 -0.06347148 0.027922407 0.025870325 -0.05773137 0.062585674 0.022029644 -0.020922272
-0.0498103 -0.051070224 -0.09139497 0.02877761 -0.059916116 -0.047430154 -0.027730897 -0.057200536
-0.044237047 -0.04611391 0.015740674 0.03824722 -0.021143299 -0.013969663 0.018050786 -0.011470761
-0.1047357 0.09636705 0.04319962 -0.009748382 0.036519967 0.09746421 0.054611586 0.088388056
-0.07654256 0.06221205 -0.038490396 -0.012826964 0.043948125 0.10655914 -0.011074327 -0.05928807
0.06392098 0.027784653 0.018433042 0.05051709 -0.06731922 -0.04218487 -0.10623347 -0.08381572
0.05994419 -0.091842726 0.06355639 -0.06484075 0.0761429 -0.016343992 0.018830579 -0.0014827016
0.10276999 0.027416693 0.05020332 -0.09536736 -0.03562981 0.098303296 -0.034331053 -0.094833486
0.08185915 -0.0027113012 0.05427601 -0.04178045 0.08541366 0.020723792 0.071467586 0.087330945
-0.102439426 0.006832085 -0.06784052 -0.02827652 -0.10847937 -0.07359046 0.060068026 0.019693984
0.061459016 0.0038939374 -0.0042699506 -0.03962507 0.016760783 -0.014080499 0.07093238 -0.026492462
0.05221972 0.11565649 0.096307285 0.04327415 -0.059717182 0.087827 -0.06514954 -0.11294095
-0.0042009894 -0.007196364 -0.07255395 0.013957881 -0.022227565 -0.016168846 -0.005960695 -0.084134564
-0.0018825408 -0.08202039 -0.07020306 0.105565764 0.08484208 0.083758004 0.08422744 -0.0016483869
0.031790417 -0.07442113 0.049085245 -0.09555915 -0.053207364 -0.08213633 0.0049108327 -0.10475963
0.025182987 -0.0763967 -0.07258371 0.09245871 -0.096804276 -0.026339952 -0.017799444 0.093926445
-0.017092438 0.0016870258 0.028996136 -0.0764348 -0.08613295 -0.02079603 0.09706622 0.10174611
-0.100742854 0.07209714 0.0059186686 -0.05781998 0.050123762 0.044901382 0.09100751 -0.097555526
0.0058476706 -0.044120044 0.047692683 -0.027117966 0.06689243 -0.10495873 -0.031744514 -0.0984271
0.09229844 -0.09107851 0.08641877 -0.057777025 0.079891555 -0.0037584137 -0.105081595 -0.033952843
0.045578964 0.043583322 0.07885236 0.08359774 -0.061223105 -0.10966477 0.06526649 0.025545001
0.02532104 -0.030840056 0.06988285 -0.07986711 0.06785773 -0.05529514 0.09957541 0.0846226
0.035410993 0.045371197 0.10118008 0.009706059 -0.040448032 -0.049928352 -0.058299366 -0.01319412
0.101683 0.080182865 -0.046814956 0.12381821 0.01689187 -0.09892453 0.056875248 0.016652197
-0.003055701 0.07047975 0.048175488 0.11581993 -0.0465642 0.040430963 0.06085296 0.06856793
0.07872064 -0.0059651826 -0.092121586 0.042646818 0.089917995 0.012307511 0.06920023 0.10581536
0.095248275 0.09977259 0.044659015 -0.02140603 0.018495254 0.058187142 -0.053314704 0.0767253
00000000: 6924 f2bc 3c9f 0c3d 1dc3 ab3d eb18 b4bb
00000010: 122a cf3d b45a 86bd 8b4e 2ebd ef8d adbd
00000020: 1eaf 7a3c c851 7bbd e530 943c 461c b13d
00000030: 945c d33d 0bdf 10be 29b8 0b3a ba37 a53d
00000040: fbde babd a08b d03d 0e7b a73d 5364 313d
00000050: f2c2 8bbd 8807 2a3d 468a 3d3b 66d3 44bd
00000060: 01a7 aa3d e0dd 5f3d 23fa 8cbd 6adf 8bbc
00000070: ab5c 6fbd 7717 fdbb 74f8 173d c421 9abd
00000080: c7ee c63d b2d5 ba3d 8bfc 4b3d 33e3 533d
00000090: 1189 363d 2959 e23d 6c34 8f3c 1791 a73d
000000a0: 1e81 cd3d 56fd 81bd 88bd e43c 01ee d33c
000000b0: bb77 6cbd eb2c 803d 8377 b43c 2f65 abbc
000000c0: e305 4cbd 032f 51bd 492d bbbd 06bf eb3c
000000d0: 9a6a 75bd 1f46 42bd e82b e3bc 1c4b 6abd
000000e0: e831 35bd f0e1 3cbd 96f2 803c 1ea9 1c3d
000000f0: b634 adbc 03e1 64bc 3edf 933c dcef 3bbc
00000100: ac7f d6bd 175c c53d 16f2 303d adb7 1fbc
00000110: f695 153d 519b c73d 66b0 5f3d cc04 b53d
00000120: 58c2 9cbd 10d2 7e3d 1ba8 1dbd 3028 52bc
00000130: f302 343d ae3b da3d 1871 35bc 0cd8 72bd
00000140: 01e9 823d a49c e33c e400 973c 02eb 4e3d
00000150: a9de 89bd 0bca 2cbd ef90 d9bd 94a7 abbd
00000160: 0a88 753d 0a18 bcbd da29 823d 3acb 84bd
00000170: cff0 9b3d d6e3 85bc 9642 9a3c 3657 c2ba
00000180: 1379 d23d f998 e03c ffa1 4d3d f64f c3bd
00000190: 90f0 11bd 3d53 c93d b89e 0cbd 0f38 c2bd
000001a0: c5a5 a73d 16b0 31bb 8550 5e3d fa21 2bbd
000001b0: 5bed ae3d f1c4 a93c 995d 923d 91da b23d
000001c0: c3cb d1bd afdf df3b f8ef 8abd 29a4 e7bc
000001d0: 6f2a debd 98b6 96bd e409 763d 4755 a13c
000001e0: 73bc 7b3d 6e31 7f3b f1ea 8bbb e64d 22bd
000001f0: e94d 893c e5b1 66bc ff44 913d b806 d9bc
00000200: 58e4 553d 4fdd ec3d c13c c53d 3c40 313d
00000210: 019a 74bd a4de b33d 1f6d 85bd 964d e7bd
00000220: 74a8 89bb 7acf ebbb 2a97 94bd 99af 643c
00000230: 9516 b6bc 8774 84bc ef51 c3bb be4e acbd
00000240: 96bf f6ba 4efa a7bd 9fc6 8fbd dd32 d83d
00000250: afc1 ad3d 5189 ab3d 707f ac3d b00e d8ba
00000260: ab36 023d 1b6a 98bd 9c0d 493d 84b4 c3bd
00000270: f7ef 59bd 1837 a8bd 0deb a03b 388c d6bd
00000280: 8d4c ce3c e075 9cbd c5a6 94bd fe5a bd3d
00000290: 5241 c6bd e2c6 d7bc 24d0 91bc 825c c03d
000002a0: 7105 8cbc 311f dd3a 4e89 ed3c d989 9cbd
000002b0: 7966 b0bd 705c aabc a8ca c63d 4460 d03d
000002c0: 4552 cebd aaa7 933d 64f1 c13b a5d4 6cbd
000002d0: 934e 4d3d 83ea 373d 2562 ba3d 31cb c7bd
000002e0: d19d bf3b 38b7 34bd 6759 433d 7f26 debc
000002f0: e6fe 883d 9af4 d6bd 8906 02bd 2694 c9bd
00000300: f706 bd3d 5f87 babd 53fc b03d 9aa7 6cbd
00000310: 2f9e a33d b84f 76bb 0535 d7bd 2312 0bbd
00000320: 02b1 3a3d 6d84 323d 597d a13d 4b35 ab3d
00000330: 14c5 7abd ec97 e0bd 70aa 853d c043 d13c
00000340: 126e cf3c 49a4 fcbc bd1e 8f3d 5e91 a3bd
00000350: fef8 8a3d 287d 62bd 31ee cb3d 9d4e ad3d
00000360: 1e0b 113d 26d7 393d 8037 cf3d 2906 1f3c
00000370: d6ac 25bd ac81 4cbd 51cb 6ebd 262c 58bc
00000380: 2d3f d03d ea36 a43d 0ac1 3fbd 6794 fd3d
00000390: d260 8a3c f298 cabd 05f6 683d 306a 883c
000003a0: 2842 48bb b057 903d a953 453d 0033 ed3d
000003b0: 1aba 3ebd f09a 253d f440 793d 586d 8c3d
000003c0: 4938 a13d 9477 c3bb 3eaa bcbd 6eae 2e3d
000003d0: ed26 b83d 71a5 493c dab8 8d3d b9b5 d83d
000003e0: 8711 c33d 9255 cc3d 5fec 363d b35b afbc
000003f0: 5c83 973c a455 6e3d 8560 5abd 2722 9d3d

sequential/y_pred/MatMul f4 [3, 256]
0.03992272 0.06472123 -0.034090456 0.006935694 -0.096103445 -0.12581077 0.035986412 -0.13578223
0.12262657 -0.049102005 -0.014254149 0.037890438 -0.05715297 -0.1385661 0.07349029 0.02044149
-0.02683877 -0.11522308 0.046632722 -0.11825495 -0.05754274 -0.11682169 -0.03158364 0.13481545
-0.055289052 0.13716052 0.003080644 -0.10243946 -0.052949168 -0.03287478 -0.023594484 0.021228956
0.15343693 -0.039837163 0.10606348 0.02627585 0.06828266 0.03924695 -0.061723776 0.047891643
-0.12114492 -0.022997167 -0.13086921 0.021293141 0.07565537 -0.10822983 -0.13500127 -0.086086966
-0.1086591 0.12028965 -0.0070455326 -0.018975584 -0.10617266 -0.017467622 -0.1396495 0.120920315
-0.14563526 -0.13042471 0.06167847 -0.093733825 -0.017091965 0.04846272 0.059803206 -0.028403617
-0.07472149 -0.10789975 0.1493367 0.07136858 0.09579353 -0.12637556 0.107009985 0.13249218
-0.1436541 -0.05538453 0.09344425 -0.11704234 -0.07612924 0.07766599 0.105575494 -0.124760196
-0.13777101 -0.0017507549 -0.044674397 -0.06291176 -0.10226196 -0.012873817 -0.038794663 0.1321604
-0.08056607 -0.015779728 0.10228043 0.083979726 0.03162624 0.11255277 0.108326115 -0.05875248
0.05330159 -0.08380751 -0.11887221 0.100805655 -0.0019030174 0.06618214 0.1064139 -0.086423665
0.04021225 -0.028744366 0.12982315 0.1397248 -0.05629515 -0.102228776 -0.0029011122 -0.13867003
-0.09553395 -0.056802854 -0.115330935 -0.05662106 0.09407851 -0.0051317806 -0.14168687 -0.04221732
0.02522655 -0.098128326 0.0655684 -0.06240212 -0.012663976 -0.12071612 0.13262402 0.00998038
-0.032959934 -0.11251199 -0.055273086 0.024822263 -0.12072414 0.069964975 0.035800345 -0.0027420956
0.11872693 0.013421161 0.108642384 0.10016495 -0.061768837 -0.10447276 -0.00048512555 0.12488954
-0.08867931 0.12664515 0.038402047 0.07073357 -0.07987955 -0.10925772 0.07023298 0.0605568
0.12184501 0.04815205 -0.071892194 -0.09338457 0.1274162 -0.013382688 0.0066105444 0.13389608
-0.12058729 0.047116883 0.042236358 0.030266521 0.13642938 -0.0769857 0.040649474 0.061681814
0.0016167224 -0.023693334 -0.059433434 0.038389955 -0.06467172 -0.017822187 -0.019179586 0.0977552
-0.1386363 0.115747266 0.05163985 -0.0784585 0.1336162 0.1188835 -0.04093785 0.120738715
-0.024253001 0.11903322 0.0016268571 -0.08539761 0.03853438 -0.06789438 0.060116414 -0.15890993
0.0065259505 0.13267715 0.12103586 0.009331795 -0.087955095 0.10460957 0.098932415 0.08256078
0.117343426 0.07088518 -0.0828433 0.003373703 -0.08557787 -0.08046324 -0.11654846 -0.034129407
-0.02656359 -0.10358289 0.12801197 0.03783346 -0.02606197 0.011945035 -0.10317021 -0.115312986
0.018192088 0.11723437 -0.08386655 0.1536073 0.046356145 0.026405897 0.06158318 -0.068680525
-0.039191723 0.112435706 0.09152456 0.06957442 -0.048759937 -0.13950095 -0.039715406 -0.094907165
0.0023855588 -0.08777742 -0.12513071 -0.0541833 -0.07309595 0.06467457 -0.015097004 -0.026468754
0.06425997 0.06703274 0.051675335 -0.14662309 0.14805631 -0.05058932 0.14031808 0.14249688
0.12595008 0.062041927 0.03669641 -0.12704937 -0.090282716 0.009776399 -0.04030969 -0.078989536
00000000: 0286 233d 908c 843d 6fa2 0bbd d144 e33b
00000010: e2d1 c4bd 8ad4 00be 7d66 133d 7f0a 0bbe
00000020: a423 fb3d 2f1f 49bd 3c8a 69bc 0133 1b3d
00000030: 3c19 6abd 46e4 0dbe 1482 963d e974 a73c
00000040: fbdc dbbc 14fa ebbd f401 3f3d a72f f2bd
00000050: f0b1 6bbd 3640 efbd d95d 01bd 100d 0a3e
00000060: c676 62bd cf73 0c3e a1e4 493b c8cb d1bd
00000070: 3ae1 58bd b5a7 06bd 3849 c1bc 59e8 ad3c
00000080: 921e 1d3e 4b2c 23bd cf37 d93d 7440 d73c
00000090: c7d7 8b3d 69c1 203d 12d2 7cbd 072a 443d
000000a0: d41a f8bd 8e64 bcbc 9402 06be f46e ae3c
000000b0: 34f1 9a3d 9aa7 ddbd c63d 0abe 5d4e b0bd
000000c0: aa88 debd 6c5a f63d 36de e6bb af72 9bbc
000000d0: 0d71 d9bd 4218 8fbc 4700 0fbe 12a5 f73d
000000e0: 6921 15be 0e8e 05be 90a2 7c3d 85f7 bfbd
000000f0: 7304 8cbc d880 463d 35f4 743d b4ae e8bc
00000100: 9507 99bd 8bfa dcbd b8eb 183e b129 923d
00000110: 662f c43d 9868 01be 0d28 db3d 08ac 073e
00000120: 0f1a 13be e4da 62bd b35f bf3d e5b3 efbd
00000130: a6e9 9bbd 590f 9f3d f737 d83d 4682 ffbd
00000140: d813 0dbe 9679 e5ba 80fc 36bd e1d7 80bd
00000150: b86e d1bd b4ec 52bc 27e7 1ebd 0e55 073e
00000160: d3ff a4bd 7d44 81bc 6778 d13d 90fd ab3d
00000170: 848a 013d 1182 e63d 15da dd3d 71a6 70bd
00000180: c552 5a3d 46a3 abbd 4673 f3bd 3273 ce3d
00000190: ab6e f9ba 808a 873d 88ef d93d e4fe b0bd
000001a0: 9ab5 243d 4e79 ebbc 5cf0 043e 0514 0f3e
000001b0: be95 66bd 525d d1bd 9620 3ebb 84ff 0dbe
000001c0: 4ea7 c3bd 1caa 68bd a032 ecbd 7ceb 67bd
000001d0: 3cac c03d 7f28 a8bb 5d16 11be 12ec 2cbd
000001e0: e9a7 ce3c 81f7 c8bd ba48 863d 5e99 7fbd
000001f0: 917c 4fbc 033a f7bd 97ce 073e bf84 233c
00000200: ff00 07bd b06c e6bd 0866 62bd 0f58 cb3c
00000210: 383e f7bd cc49 8f3d 62a3 123d bbb4 33bb
00000220: 1b27 f33d 6ee4 5b3c e67f de3d 4823 cd3d
00000230: 5201 7dbd d0f5 d5bd 7358 feb9 16c6 ff3d
00000240: 809d b5bd 44af 013e 774b 1d3d c3dc 903d
00000250: e497 a3bd 83c2 dfbd 4fd6 8f3d 680a 783d
00000260: e089 f93d 153b 453d 373c 93bd 6940 bfbd
00000270: 6479 023e 1043 5bbc 449d d83b 0e1c 093e
00000280: 78f6 f6bd a2fd 403d 0800 2d3d 7ff1 f73c
00000290: 25b4 0b3e aeaa 9dbd 1080 263d 12a6 7c3d
000002a0: 34e8 d33a 8618 c2bc 7970 73bd c93e 1d3d
000002b0: 9b72 84bd d6ff 91bc 821e 9dbc e133 c83d
000002c0: adf6 0dbe e70c ed3d 4f84 533d daae a0bd
000002d0: afd2 083e 3179 f33d 72ae 27bd dc45 f73d
000002e0: 3bae c6bc b0c7 f33d 443c d53a f1e4 aebd
000002f0: 3ad6 1d3d 350c 8bbd a13c 763d 49b9 22be
00000300: a4d7 d53b 85dc 073e a6e1 f73d 63e4 183c
00000310: cd21 b4bd 8b3d d63d 149d ca3d a015 a93d
00000320: c051 f03d 402c 913d c0a9 a9bd 5819 5d3b
00000330: 7343 afbd e9c9 a4bd f6b0 eebd 47cb 0bbd
00000340: e39b d9bc 4423 d4bd 9215 033e 42f7 1a3d
00000350: ea7f d5bc 1cb5 433c e74a d3bd 3729 ecbd
00000360: 9307 953c 9318 f03d 3ac2 abbd 3b4b 1d3e
00000370: f1df 3d3d 2e51 d83c a53e 7c3d 60a8 8cbd
00000380: 8087 20bd b144 e63d 3a71 bb3d 097d 8e3d
00000390: 80b8 47bd 56d9 0ebe 9fac 22bd b05e c2bd
000003a0: 0957 1c3b a6c4 b3bd 4422 00be 4fef 5dbd
000003b0: 54b3 95bd 1a74 843d 6d59 77bc 00d5 d8bc
000003c0: bb9a 833d 7648 893d 84a9 533d 5d24 16be
000003d0: 139c 173e bf36 4fbd 8baf 0f3e b4ea 113e
000003e0: 0ff9 003e ad1f 7e3d fa4e 163d 3b19 02be
000003f0: 25e6 b8bd 302d 203c c61b 25bd 44c5 a1bd
